trhd_mapper_final.pth (torch, 94873 bytes, 8 tensors)

query_net.weight f4 [71, 71]
000000 d2 01 36 bd b2 09 a9 3d 05 12 15 3d 85 c3 9a 39
       -0.04443533 0.08253802 0.036394138 0.00029518842
000010 c5 d8 87 bd c6 b1 87 3d 39 72 ff 3c 7d 59 51 3d
       -0.066331424 0.066257045 0.031182395 0.051110733
000020 b4 12 c3 3d 43 7f 97 3d 22 9f 2b 3d 14 8b 38 3d
       0.09525052 0.0739732 0.041899808 0.04505451
000030 05 67 1d bd 24 c8 b0 3c 88 2a a3 3c 93 fa f2 3d
       -0.038428325 0.02157981 0.019917741 0.118641995
000040 6a e0 15 bb 9d 82 c6 bd c4 83 e9 bd 0a 8d 55 bd
       -0.0022869357 -0.09692881 -0.114020854 -0.05213646
000050 da 6c 05 3d c9 19 50 bd ea 0c da bd 38 9e 88 bb
       0.032574512 -0.05080584 -0.106469944 -0.004169252
000060 85 fe 47 3d 62 6c f2 3d 82 58 e3 bd 17 5b d3 bd
       0.048826713 0.11837079 -0.11100866 -0.103201084
000070 ca f3 56 3d 8c 22 3f 3d 01 31 9e 3d 78 90 76 bd
       0.05247859 0.046663806 0.077241905 -0.06019637
000080 2f 84 20 3d 8a a6 dd bd f5 cb 21 3d 42 41 f8 3c
       0.03918856 -0.108227804 0.03950115 0.030304555
000090 b5 a4 ed 3d 05 e5 84 bd 6c 82 ca b9 2b 6c ab bd
       0.11603681 -0.064889945 -0.00038625614 -0.08370241
0000a0 1f 09 1a 3d 75 d5 b3 3d 98 c0 15 3d e6 df d5 bd
       0.037606355 0.08780948 0.036560625 -0.10443096
0000b0 4f 11 c7 3d cc d5 c9 bd 8c 38 cf bb 57 66 9b 3d
       0.09720098 -0.09855232 -0.0063238796 0.07587879
0000c0 6c d7 b5 3c 93 d3 bc 3c 5f 31 58 bd 93 5c ac 3c
       0.022197448 0.023050105 -0.05278146 0.021040237
0000d0 0e 16 ef 3d 0e 12 a3 bc f2 4c 6b bc 03 f5 50 3d
       0.116741285 -0.01990607 -0.014361607 0.05101491
0000e0 26 ca 26 bc be 7e 5e bd a6 45 8e bd 88 83 ee 3c
       -0.010180032 -0.05432009 -0.06946878 0.029115453
0000f0 9c 50 90 3d 39 d5 df 3d d8 a1 fc bc fa d6 d9 bd
       0.07046625 0.10929341 -0.030838892 -0.10636707
000100 50 88 fb bc 48 be 8d bd cd 25 2c 3d 76 e3 c9 bd
       -0.030704647 -0.06921059 0.042028237 -0.09857838
000110 42 79 84 bd 07 15 21 3d 9d 25 a3 3d 7e 25 49 3d
       -0.064684406 0.039326694 0.079661585 0.04910802
000120 5a 82 d1 3d ab ab d0 3d 4d ae 8e bd cf 03 db bc
       0.10229941 0.10188993 -0.06966839 -0.026735215
000130 2b b5 9c 3d 03 a5 b7 3d 38 50 7a 3d e2 66 3c 3d
       0.076517425 0.0896702 0.06111166 0.045996554
000140 df 90 7b bd 96 4e fa bc 37 ef 88 bc 21 1c f1 3c
       -0.061417457 -0.03055505 -0.016715629 0.029432358
000150 b2 27 e8 3d 64 89 fa 3c 0e 28 c6 3d 07 9b a4 bd
       0.11335696 0.030583091 0.096756086 -0.080373816
000160 93 ec eb 3d c5 8f 98 bc 97 d7 8b 3d ab 4c 54 bb
       0.11519732 -0.018623242 0.0682823 -0.003239433
000170 fc 26 cd bd 88 5e c7 3d cc 5c af 3d e7 20 92 bd
       -0.10017201 0.09734827 0.085626215 -0.07135182
000180 fb 20 aa bd 25 dd 65 3c 13 32 9b bd c6 6b a3 3d
       -0.08307072 0.014029776 -0.0757791 0.079795405
000190 a2 2c bc 3d 28 4d 0f 3d 6b 9f 0b bd 07 39 b2 bd
       0.091882005 0.03498569 -0.03408758 -0.08702283
0001a0 eb b9 bc 3d 9c 0f 79 3b 57 a1 3b bd ee 05 67 3d
       0.092151485 0.0038003689 -0.045808163 0.05640214
0001b0 58 4d 4e bd 20 75 9c bd bc d3 82 bd 6e 70 1e 3d
       -0.05036673 -0.07639527 -0.063880414 0.03868144
0001c0 de a9 bc 3d c8 8f 44 bb 87 38 31 bd 7d 50 b2 bb
       0.09212087 -0.0029992927 -0.0432668 -0.005441724
0001d0 d6 99 0e bd ae 56 c1 bd 6b fc 9e bd f8 8b 5d 3d
       -0.034814678 -0.09440361 -0.07762989 0.054088563
0001e0 99 ff 15 3d 38 09 d4 bd ac f5 b1 3c a3 d7 af 3c
       0.03662071 -0.10353321 0.02172359 0.021465128
0001f0 78 1b 26 bd 9e d8 13 bd 54 7f 54 bd 1c f7 9d 3c
       -0.04055354 -0.036095254 -0.051879242 0.01928287
000200 58 e9 35 3d 46 55 8d 3d 74 0d e4 bd 67 f4 ea 3d
       0.044411987 0.0690103 -0.111353785 0.11472397
000210 09 b6 8c bd 61 05 46 3c 89 01 b3 3d 67 a4 a0 bd
       -0.06870658 0.012086243 0.08740527 -0.07843857
000220 97 63 07 bd 09 54 e7 3d cb 3c 91 bd 9e 42 7b 3a
       -0.03305396 0.11295325 -0.070916735 0.0009584817
000230 3c 27 88 3d b2 05 cd 3d df ee c2 3d 3f fe e8 3d
       0.06648108 0.10010852 0.09518217 0.113766186
000240 b2 05 58 bd 1c d0 c3 3d dc 0c 33 bd 0c bb be 3b
       -0.052739806 0.09561178 -0.043713436 0.0058206376
000250 81 c2 5d bd 76 4f d9 3b a5 ce b2 bb 61 c3 ee bd
       -0.05414057 0.006631787 -0.005456763 -0.11658359
000260 56 6a e6 3d 48 82 65 bd 70 66 db bd 53 67 88 bd
       0.11250751 -0.05603245 -0.10712898 -0.066603325
000270 ab d9 ec 3d a4 f3 ed bd 1e e0 d4 3d b5 f4 72 bd
       0.11564954 -0.116187364 0.103943095 -0.059315402
000280 4e c0 40 3c 7a 7d a8 bd 04 67 59 bc 3e 26 f2 bd
       0.011764599 -0.08227058 -0.01326919 -0.118237
000290 bd c3 91 3a 95 24 fc bc 3b a1 a9 3c bb 45 80 3d
       0.0011120957 -0.030779162 0.020706763 0.062633
0002a0 6b 0d 99 3c e5 54 9b 3d d0 50 91 bd 89 79 3e bd
       0.018683156 0.07584552 -0.07095492 -0.046502624
0002b0 bb de b4 bc 13 b9 83 bd fe 62 8e 3c d8 2d 18 bd
       -0.022078862 -0.064317845 0.017381188 -0.037153095
0002c0 83 a2 12 bd aa 2d c8 3d 2b 51 95 3c ca d9 7d bb
       -0.035799515 0.09774335 0.01822718 -0.0038734549
0002d0 f3 e9 0c 3d c2 47 a3 bb 32 22 c6 3d c8 05 a4 bd
       0.0344028 -0.0049829194 0.09674491 -0.08008915
0002e0 f4 dd 0d bd 7e fa 95 bc da 11 31 3d 53 43 76 3c
       -0.0346355 -0.01830792 0.043229915 0.0150307
0002f0 35 52 00 3d de 8b 59 bd 14 a4 55 bd fc 1e 63 3c
       0.0313284 -0.053111903 -0.05215843 0.013862368
000300 72 04 5f bc d3 19 a6 bd f7 e2 91 bd 17 03 c3 3d
       -0.0136119 -0.08110394 -0.07123368 0.09522074
000310 d5 7e 1d 3c 41 2a 59 3d 80 29 d2 3c ec c6 db bd
       0.009612759 0.053018812 0.025654554 -0.10731301
000320 69 03 1a bd 27 45 9d 3d 65 52 07 bd 70 c0 ef 3d
       -0.03760091 0.076792054 -0.033037562 0.117066264
000330 3e fe 81 3d 7f 15 e6 3d 54 85 c2 3d d2 dd 2a 3d
       0.06347321 0.11234569 0.094980866 0.04171545
000340 62 23 7d 3c 6a a4 ad 3d 4b 97 04 bd 50 89 34 3d
       0.01545033 0.08478625 -0.032370847 0.044076264
000350 c7 24 a4 bd b0 f9 a4 3d 84 11 be bc 05 f5 19 3d
       -0.08014827 0.080554366 -0.023201711 0.037587184
000360 c7 be 79 bd 05 c6 ec bd 69 b0 4e bd 13 fe 9b bc
       -0.060972955 -0.11561207 -0.050461207 -0.01904205
000370 d7 54 74 bd 7a 13 33 3b 56 7e 2c 3d 33 7f 9c 3c
       -0.059651222 0.0027324841 0.04211267 0.019103622
000380 85 b0 50 bd d0 d6 1c bd be 11 8a bc 2e 97 d3 3c
       -0.050949592 -0.0382908 -0.016854163 0.025828924
000390 bd fe a4 3d 78 af a4 3b d5 1c 4a 3d 8c 1f 2d bd
       0.080564 0.0050258003 0.049343903 -0.042266414
0003a0 29 d4 f7 3b ed 4d 8e ba 92 0b f2 bd 4c fd 1d 3d
       0.0075631333 -0.0010856964 -0.11818613 0.03857164
0003b0 a0 ea 4b 3d 71 72 00 3d 6a 5a 8b bd d1 39 72 3d
       0.049784303 0.03135914 -0.068043545 0.05913717
0003c0 b2 91 28 3c 3a 3b 5e bc a8 4e 03 3d aa 9f bb 3c
       0.010288643 -0.013563925 0.032057434 0.022903282
0003d0 da ca ec bc 31 24 f1 bd 54 6c f2 bd 4c 6d de 3d
       -0.02890532 -0.11774481 -0.11837068 0.108606905
0003e0 ce f8 4f bc 7c de 08 bc 6c 72 c0 3d 28 ef c5 3d
       -0.012693597 -0.008353826 0.09396824 0.09664756
0003f0 69 9a 63 bc 9d 4b 7d 3c 4b df 44 bb 2f 21 dc bd
       -0.013891795 0.015459922 -0.003004032 -0.10748517

query_net.bias f4 [71]
000000 bf f2 5d bd b9 ba 5b bc 66 41 10 3d c4 85 5c bd
       -0.05418658 -0.013411217 0.03521862 -0.053838506
000010 38 43 20 bd 9a ce 1a 3d 18 c5 6c bc 2b cb ea bb
       -0.039126605 0.037794687 -0.014451288 -0.007165333
000020 d3 53 76 bd ff 14 d7 3d 3a ef 97 bb 4b 40 9a bd
       -0.060138535 0.105020516 -0.0046366723 -0.07531794
000030 57 67 37 bc ec be e0 3d af 8b 0a 3c df ef de bd
       -0.011194072 0.109739155 0.008456155 -0.108855955
000040 24 03 eb bd b8 59 bd bd de fc e8 bd 86 33 d8 bc
       -0.114752084 -0.09245628 -0.113763556 -0.026391756
000050 fb 54 de bb f1 ec 8f 3b da 3b a3 3d 2c 7a bf 3d
       -0.006785033 0.0043922593 0.079704 0.09349474
000060 5f df cd 3c b5 29 9d 3c c4 c1 25 bd 29 56 dc bc
       0.025130926 0.019184927 -0.040467992 -0.026896553
000070 57 cc b1 bc eb c9 c2 bd ba bf 8f 38 61 f7 83 bd
       -0.021703882 -0.09511169 6.854483e-05 -0.06443668
000080 32 20 7a 3d e6 e7 7d 3d 30 ce 33 bd f0 a2 8d bd
       0.06106586 0.061988734 -0.043897808 -0.069158435
000090 10 67 62 3d f9 e0 a6 bd 76 05 7d 3d 6b f3 11 bd
       0.05527407 -0.08148379 0.061772786 -0.035632532
0000a0 e7 45 71 bd b5 73 b8 bd 0c df 25 bb c8 ee d4 bd
       -0.058904555 -0.09006444 -0.0025309948 -0.103971064
0000b0 6e 99 c2 bd fe c7 94 bd 3c 3e e3 3d e3 21 83 3d
       -0.09501921 -0.07264708 0.11095855 0.06402948
0000c0 06 d4 24 bc eb b7 c3 bd c0 34 e8 3d 49 aa 02 3d
       -0.010060316 -0.09556564 0.11338186 0.031900678
0000d0 b4 e8 8c bc 1d b1 bc bd 50 5e bc bd e9 c5 95 3d
       -0.017200805 -0.09213469 -0.09197676 0.07313139
0000e0 95 41 f0 3c 17 67 ce bd 6e bd b6 3d 00 dd 8a 3d
       0.029328147 -0.100782566 0.089228496 0.06780434
0000f0 ca dd d8 3d 7a 50 a6 bc cd fb ca 3d cd 43 94 3c
       0.10589178 -0.020302046 0.099113084 0.018098736
000100 58 51 35 3d 8a c4 3e 3b 04 10 63 bd 35 98 3c bd
       0.04426703 0.0029108846 -0.055435196 -0.046043593
000110 34 db ed bd 0c fb 60 3c dd db 57 3d
       -0.11614075 0.013731729 0.052699912

net.0.weight f4 [128, 71]
000000 5e 14 ec 3e 63 f1 21 be 36 c2 51 3d 86 ff 0b 3d
       0.4610929 -0.15814738 0.051210605 0.034179233
000010 41 f1 68 ba f0 e3 8b 3d b8 78 98 3d a9 b2 9c bd
       -0.0008886047 0.06830585 0.074449 -0.07651264
000020 42 f8 3a bc 02 2a f8 bc e8 b3 89 bd 53 9b 56 bd
       -0.011411728 -0.030293468 -0.067237675 -0.052394222
000030 35 a6 88 bc 1f 91 1f 3e 57 6d a2 bd 32 72 b0 3d
       -0.016680816 0.15582703 -0.07931011 0.08615531
000040 91 1c d5 3c be c9 95 bd c0 42 24 bd d1 3e c1 3d
       0.026014598 -0.0731387 -0.04010272 0.094358094
000050 b5 5c 83 bd 4b d9 68 bd 21 ab 8a bd ff 83 30 3d
       -0.06414167 -0.05684785 -0.067709215 0.04309463
000060 ee cd 66 3d 77 0f 45 3d d1 09 b6 bd d1 74 c0 3c
       0.056348734 0.04811045 -0.08888591 0.023493202
000070 56 50 83 ba b0 bf 68 bd f8 9d d0 bd 70 04 87 37
       -0.0010018449 -0.056823432 -0.1018638 1.609532e-05
000080 be a8 02 3d ab f6 86 3d 98 82 7a bc 88 32 b1 bb
       0.031899206 0.06590017 -0.015289925 -0.005407635
000090 bc 35 8c 3d 87 4d 0d be fd cb af 3d 7a 9a 31 bd
       0.068461865 -0.13799106 0.085838296 -0.04336021
0000a0 03 a4 db bd 5c 36 ab bd 79 d3 d0 bc 99 41 bb bd
       -0.10724642 -0.083599776 -0.025491463 -0.09143371
0000b0 e8 cc 72 bd 08 31 65 bd 63 ae cc bd 1b 87 ae bd
       -0.059277445 -0.055954963 -0.09994199 -0.08521863
0000c0 62 6c ef 3c b9 b2 82 bd 14 d7 82 bd 5e 42 81 bd
       0.029226486 -0.06381745 -0.06388679 -0.06311487
0000d0 dd ef 39 be 2d 4c 9b bd b8 9f ae bd 78 5b 48 bd
       -0.18157907 -0.07582889 -0.08526558 -0.048915356
0000e0 c5 86 28 3d 90 6b f0 3c 4f d0 2a be 5e 9f ee bd
       0.04114415 0.029348165 -0.16681026 -0.11651491
0000f0 ea ad 09 be 8b 0c 9a 3c bc 12 32 bd 56 ef 0c 3c
       -0.13445249 0.01880481 -0.043474898 0.008601984
000100 b3 37 ea bc 64 04 de bc 6d ca c9 3d e6 a5 82 3a
       -0.028591013 -0.027101703 0.09853063 0.0009967654
000110 db ed 09 3e fe 0e a0 bd 99 ec d2 3c cb 24 6a 3e
       0.13469641 -0.078153595 0.025747584 0.22865598
000120 52 55 12 bd f3 7d 0e 3e cc 7e 3a bd 3e 6c ec 3d
       -0.0357259 0.13915233 -0.04553108 0.11544083
000130 9b 0f 04 bd 59 94 87 3c 8f 4b 80 3d 3d e6 d5 bd
       -0.032241445 0.01655023 0.06264412 -0.10444305
000140 2b 18 df ba 4b 55 06 be 07 1c 13 bd f0 8f 11 3d
       -0.0017020752 -0.13118474 -0.0359154 0.03553766
000150 3e f7 af 3d 2a e1 95 bc ec 40 37 3b 90 48 ed 3d
       0.085920796 -0.018295843 0.002796228 0.11586106
000160 bc dd 35 3d e1 d7 d9 bd c6 18 b9 3d 3d e6 8d bd
       0.044400916 -0.10636879 0.09037928 -0.0692868
000170 19 66 b8 3c 4d d2 28 bd a0 7f 4b be 6e 31 14 bd
       0.022509621 -0.041216183 -0.19872904 -0.036179952
000180 6c 55 ef bc 92 e7 b8 bc 24 4b 4a 3e 6a 99 08 bd
       -0.029215537 -0.022571359 0.19755226 -0.033349432
000190 8e 2d 34 bd 00 8b 3c 3d ab e4 25 bc fc 28 93 3d
       -0.043988757 0.046031 -0.0101253195 0.071855515
0001a0 6c 12 4c bd ae 2f ab 3b f4 11 31 3e f4 bf 9a bc
       -0.049822256 0.0052241897 0.17292005 -0.018890359
0001b0 2c ab 61 3a a6 ad be 3c ca 79 f8 3d 86 b2 12 be
       0.00086085754 0.023276161 0.121326044 -0.14325914
0001c0 9f fb 6a 3e ed ac 56 bd 2a 95 02 bc 6d ff c0 bc
       0.22947548 -0.05241101 -0.007970134 -0.023559297
0001d0 33 94 c2 3d 9b 4b ac bd a6 5d 97 3d de cd c7 3d
       0.09500923 -0.08412858 0.07390909 0.09756063
0001e0 94 5c 29 be a4 05 80 bd 13 83 cd bc e3 92 c0 bd
       -0.16539222 -0.06251076 -0.025086915 -0.094030164
0001f0 b9 be 6d bc 80 d4 8c bc c4 5f a5 ba 91 e3 0b bd
       -0.014510804 -0.017191172 -0.0012617041 -0.03415257
000200 86 39 61 3d 64 11 18 be 65 95 14 be c5 22 09 bc
       0.0549865 -0.14850384 -0.14510114 -0.008370106
000210 4f 94 89 3c 27 8f 38 bd 11 4e 85 3c 22 ad 85 3d
       0.016794352 -0.045058396 0.016272577 0.06527163
000220 15 3c 00 bd 73 92 05 3e 18 f0 cb bd 0b 6d ab bd
       -0.0313073 0.13044147 -0.099579036 -0.08370408
000230 ee 83 15 3d b6 f1 9e bd 55 ce f4 3e af 16 a7 bd
       0.03650277 -0.077609465 0.4781367 -0.081586234
000240 ac 89 41 3d 47 9a 4f bb 75 1f 9b 3d ae ed d7 3d
       0.047250435 -0.003167765 0.07574359 0.10543381
000250 ab 71 3f 3d be 50 12 bd f6 a1 02 3d 97 d3 56 3d
       0.04673926 -0.035721533 0.03189274 0.05244788
000260 c4 c5 6a 3c 73 ab 8e bc 1d a2 e5 3c 9e 3a b3 bd
       0.014329378 -0.017415738 0.028031403 -0.08751415
000270 39 78 9b bd 6b 06 2c 3b 96 ad a5 3d 2b b8 e4 bd
       -0.0759129 0.0026248943 0.080897495 -0.1116794
000280 49 95 1c 3d dc dc 83 bc 0f b8 87 3d 96 53 05 3e
       0.038228307 -0.016096525 0.06626903 0.13020167
000290 3b f7 7c bc 97 af 21 3d ed 96 50 3c f2 2d c9 3d
       -0.015439804 0.039474096 0.012731296 0.098232165
0002a0 76 2e cb 3c a9 0a d6 bc 4e e9 72 bd 28 2d a3 3d
       0.024802428 -0.02612813 -0.059304528 0.07967597
0002b0 2c 22 04 bd 28 75 58 bc 17 c7 c5 bd 4e 31 84 3c
       -0.03225915 -0.013211526 -0.09657114 0.016136792
0002c0 e7 94 73 bc d2 8b 93 3d 7a 38 c5 3d 80 d1 30 3d
       -0.014867044 0.07204403 0.09629913 0.043168545
0002d0 cd 96 07 bd 60 93 cb 3c 2b 18 93 3d b0 52 09 be
       -0.0331028 0.024850547 0.07182344 -0.13410449
0002e0 4d c2 c5 bc 07 81 0e 3e ad 8b c0 3d 3d 3a 2d bd
       -0.024140501 0.13916408 0.09401641 -0.04229187
0002f0 6d 87 c7 bd cd 1c d8 3d 33 bd 1d be c6 4b 4d bd
       -0.09742627 0.10552368 -0.15404205 -0.05012109
000300 f7 c0 99 bd 5e ea 7b 3d 15 86 a4 3d 18 86 71 3d
       -0.07507508 0.061502807 0.080333866 0.058965772
000310 25 fc 8b 3d c9 5a 6c bd 07 86 a9 bc 0f 06 53 bc
       0.06835202 -0.057703767 -0.020693792 -0.012879862
000320 3f dc 5a 3d a3 cc f0 3c 6e 58 db bd 59 8e ae 3c
       0.0534327 0.029394453 -0.10710226 0.021308111
000330 b0 7d 42 be f8 6e ed 3d e4 7f 2a be f5 52 f8 bd
       -0.18993258 0.11593431 -0.16650349 -0.12125198
000340 a0 ef 04 be ac 81 4f 3c c5 6d ba 3b 46 62 8e 3d
       -0.12982035 0.0126651935 0.005689355 0.06952338
000350 31 b0 20 bb 8e f2 84 be 9b ae 7e 3d 9b e3 b2 3d
       -0.002451908 -0.25966305 0.062178236 0.087348185
000360 85 2b db bc 64 0f 8f 3d e9 44 95 bd e6 c9 b3 3d
       -0.02675415 0.069853574 -0.07288534 0.087787434
000370 60 4c e9 3d 39 e3 c1 bd 39 96 79 bc 90 c1 93 3b
       0.113915205 -0.094671674 -0.01523357 0.0045091584
000380 92 29 88 3d 0e d9 94 bd 86 4c e7 bc 45 4e 9a bd
       0.06648554 -0.072679624 -0.028234731 -0.0753446
000390 64 3a 1c bc f1 df 9b 3c 6d 75 80 bc 82 b1 17 3d
       -0.009535406 0.019027682 -0.015680993 0.03703452
0003a0 b7 78 f8 bc 11 c9 bb bc 69 48 a0 bc 9e 62 16 3d
       -0.030330999 -0.022923024 -0.019565778 0.036715142
0003b0 07 71 92 3d 95 ca 94 3d 34 8f ca bd e9 c2 78 bd
       0.071504645 0.07265202 -0.09890595 -0.060732756
0003c0 8d 0a e2 bd 92 e6 0a 3e af 54 f5 bd 73 65 b6 bd
       -0.11037169 0.13564518 -0.11979043 -0.08906069
0003d0 0e 52 32 bd 02 c0 03 be 5c b2 34 3e f2 25 bb 3c
       -0.043535285 -0.12866214 0.17646164 0.022845242
0003e0 aa 48 1f 3d 60 8a cb 3d ac fe 66 bd a9 e8 42 bb
       0.038887657 0.09938502 -0.056395218 -0.0029740727
0003f0 7e 9f 58 3d 93 cb 61 bc 4b 44 46 3d e6 80 3f be
       0.05288648 -0.013781446 0.048404973 -0.18701515

net.0.bias f4 [128]
000000 66 4e e5 bd 44 6b b4 3c 9d 9a cb bc bc eb 1f bd
       -0.11196594 0.022023804 -0.024853999 -0.039043173
000010 f7 a8 f0 bd 18 db bc 3c d7 66 5c 3d 41 2c 07 be
       -0.117509775 0.02305369 0.053809013 -0.13200475
000020 77 4d 38 b9 d7 29 84 bd bf 0d 46 bc cf f8 32 bd
       -0.00017576465 -0.06453293 -0.012088238 -0.043694314
000030 f6 9f 34 be 36 ff db bc 94 cd 34 3d d3 3c 45 3c
       -0.17639145 -0.026855092 0.044141367 0.012038427
000040 14 d4 06 be 27 67 89 3d 90 13 f5 bc 02 a7 75 bb
       -0.13166839 0.06709128 -0.029916555 -0.0037483578
000050 e3 32 36 3e 1a ac 08 bd 85 f4 b3 3d cd 09 10 bc
       0.17792849 -0.033367254 0.08786873 -0.008791399
000060 bb 71 02 be 98 51 79 3d d1 5d 7a bd f2 2a ea bc
       -0.12738697 0.06086883 -0.061124627 -0.028584931
000070 e0 a1 5f bd 0f 93 4c be ee 51 06 3d 8f 8d c9 bd
       -0.054597735 -0.19977973 0.032792978 -0.09841453
000080 5b bf eb bd ca 8b 92 3d 36 b7 c2 3b 0a 17 95 3c
       -0.115111075 0.07155569 0.0059422506 0.018199462
000090 ea 5b d2 bd 28 7d 43 bd db 3b a1 bd 77 a8 72 bd
       -0.102714375 -0.04772678 -0.07872745 -0.05924269
0000a0 41 a3 c3 bd 65 d2 0f 3d 82 34 9f 3d 2b ca 31 3d
       -0.095526226 0.035112757 0.07773687 0.043405693
0000b0 4a b7 34 3c 0f 8e 75 3c de 47 0e 3c f1 aa 0e 3c
       0.011030028 0.014987483 0.008684127 0.008707748
0000c0 90 37 28 bb f2 51 32 bd 15 23 91 bd 75 3f 90 bd
       -0.0025667883 -0.04353518 -0.070867695 -0.070433535
0000d0 9e 24 1c bd e7 da 80 bd 65 0b 4c be f4 3a 02 be
       -0.03812086 -0.06291752 -0.19926222 -0.12717801
0000e0 0b db 67 3c ee ce 8d bd 09 39 a0 bd 42 35 15 be
       0.014151345 -0.06924234 -0.078233786 -0.14571097
0000f0 6c 55 da bd 72 fe eb bd 2c f7 20 bd 77 5c e0 bd
       -0.10660824 -0.11523141 -0.03929822 -0.10955136
000100 f2 56 9c bd 5f ca 80 3b 9a 8c 01 be a9 ed da bb
       -0.07633771 0.0039303745 -0.12651291 -0.0066811633
000110 e3 00 c8 bd d7 dd 30 3d 3a ea 3a be 90 68 89 bd
       -0.09765794 0.043180313 -0.18253413 -0.06709397
000120 0a 78 5f bd 8f 1c d3 bd fa 86 0b 3c 16 b8 2a be
       -0.054557838 -0.103081815 0.008516068 -0.16671786
000130 b0 0c 39 3c dd 48 3d bd b4 f3 d6 bd 3f d5 cd 3c
       0.011294529 -0.046212066 -0.104957014 0.025126098
000140 56 59 13 bd 58 8e ca bd 11 98 ae bc fb 7f 19 3d
       -0.03597387 -0.09890431 -0.021312745 0.037475567
000150 fe 48 9a bc 0b 67 79 3d 12 be 97 bc f7 68 8c bd
       -0.018833634 0.060889285 -0.01852325 -0.06855958
000160 8f 72 83 bd f6 38 f3 3d d4 20 ab bc 5c a4 f7 bd
       -0.06418335 0.11876099 -0.020889677 -0.12091896
000170 eb 63 9d 3d b0 78 10 be 02 c3 2e be b2 fb 0c 3d
       0.076850735 -0.14108539 -0.17066577 0.034419723
000180 9d 1f 42 bd 7e a1 cc bd 83 e4 6c bd a7 91 d7 bd
       -0.04739343 -0.0999174 -0.057835113 -0.10525828
000190 42 71 8a bd a9 6a 84 3c be ed b6 3d 21 6f 3a bd
       -0.067598835 0.01616414 0.089320645 -0.045516137
0001a0 2b 11 62 3d f1 84 38 3b 57 03 18 bd 70 87 1d be
       0.055192154 0.002815541 -0.03711256 -0.15383697
0001b0 4e 69 83 bd 18 e8 ac 3d cc be f3 bd 7b 38 03 be
       -0.0641657 0.08442706 -0.11901626 -0.12814514
0001c0 ee f9 99 3a 98 30 22 3d e2 01 21 3b 54 1f 80 bb
       0.0011747458 0.039597124 0.0024567773 -0.0039099846
0001d0 b4 b5 5a 3d e5 52 bc bb 8f 80 c6 3c a1 a4 3e bd
       0.05339594 -0.0057471865 0.024231223 -0.04654372
0001e0 be 43 c2 bd 04 3e 21 bc 5a bf f6 bc 32 db 89 bc
       -0.09485577 -0.009841446 -0.03012054 -0.016828153
0001f0 9f c0 bb 3c 6d 6b 80 3d d7 c1 0a 3d 95 f9 85 bd
       0.022918997 0.0627049 0.033876266 -0.065417446

net.2.weight f4 [64, 128]
000000 7a 0d bd bd 15 76 91 bd 5c 66 48 bc 9a fa 90 bd
       -0.09231086 -0.071026005 -0.012231436 -0.070790485
000010 71 f7 f8 bb 21 69 b6 bd 6a 16 2b bc 3d ab 3f 3d
       -0.0075978567 -0.089067705 -0.010442356 0.046794165
000020 f8 42 4c 3d 20 1f de 3c 7b 92 9d 3c 7e 4e a1 3c
       0.049868554 0.027114451 0.019234886 0.019690748
000030 57 53 23 bd 0f 73 32 bd b5 72 e0 bc ce c9 50 3d
       -0.0398744 -0.04356676 -0.027398447 0.050973706
000040 d6 c0 4f bd fa 86 57 bc c9 c4 91 bd b7 e2 c0 3c
       -0.050721012 -0.0131547395 -0.07117612 0.023545606
000050 c4 59 0a bd db 40 f5 bc 56 f0 33 bc c2 56 a0 3c
       -0.033777013 -0.029938152 -0.0109825935 0.01957262
000060 90 17 35 3d 1d 0b de bb a5 a5 e0 bd 89 c4 91 bd
       0.044211924 -0.006776227 -0.10969094 -0.07117564
000070 47 0b f4 bc 4d 99 53 3d 9e af a2 3a 2b 3b 11 bc
       -0.029790534 0.05165987 0.0012411957 -0.008864204
000080 54 72 be bd 77 cc b2 3c a6 39 a1 3c f3 e1 b3 bd
       -0.0929915 0.021826012 0.01968081 -0.08783331
000090 cf 2f 8c 3a c6 a6 c2 3c 93 62 06 3d d0 65 6b 3d
       0.00106954 0.023761164 0.03280885 0.057470143
0000a0 9a 00 80 bd 06 f3 d6 3c 41 4a 8d 3b 16 a6 7a 3d
       -0.06250115 0.02623893 0.0043118303 0.06119355
0000b0 e2 d9 30 bd 88 bd bc 3b f9 1b 5f bd e9 a7 82 bd
       -0.04317654 0.0057598986 -0.054470036 -0.063796826
0000c0 4f 9c 53 bd 7c 4f 75 bd 33 96 de bc c6 55 77 3a
       -0.05166274 -0.059890255 -0.02717123 0.00094350835
0000d0 49 71 1f bd eb 5c 70 3d 6a a6 05 bd f4 f1 f1 3c
       -0.038926397 0.058682363 -0.032629408 0.029534318
0000e0 b9 ff 64 bd a9 e9 ad 3d 0d 05 de bd a9 04 88 3c
       -0.05590794 0.08491833 -0.10840807 0.016603785
0000f0 8b cd 7c bd de ed fa bd 56 d4 6f 3c 35 bc 0c 3d
       -0.06171946 -0.12252401 0.014638027 0.034359176
000100 a3 64 08 bd fb 5a 62 bd 35 b2 a1 bc 2f b0 c0 bd
       -0.0332991 -0.055262547 -0.019738296 -0.09408604
000110 81 15 10 3d ba 90 9b 3c c9 e1 c8 3c d1 16 8b bd
       0.035176758 0.01898991 0.024521725 -0.06791461
000120 54 f3 59 3d f2 4f 90 3c 2e ff 7c 3a 10 29 9a bd
       0.05321057 0.017616246 0.0009651062 -0.07527363
000130 d3 7a 67 3d 40 88 0e be 26 2b d9 bd 5b d6 17 3d
       0.05651362 -0.13919163 -0.10603933 0.03706966
000140 57 72 06 bd f6 ec b3 bd c8 56 d1 bd b1 28 2e 3d
       -0.032823887 -0.08785431 -0.1022163 0.042519275
000150 12 36 07 bd e5 f2 b3 bd f0 d5 76 bd 68 55 28 3d
       -0.03301055 -0.08786563 -0.06026262 0.041097075
000160 0a 7d a3 3d 25 99 7f bd 81 2b 65 bd 43 6a b7 3c
       0.07982834 -0.06240191 -0.05594969 0.022389537
000170 f4 67 1f 3d fb 56 44 3d 33 ac 6f bd 6d 1c cd 3c
       0.038917497 0.047934514 -0.05851383 0.025037969
000180 06 1b 26 bd af 93 9d bd c4 7b 37 bc 31 6d 9f bd
       -0.040553115 -0.07694184 -0.011198942 -0.077844985
000190 c8 5f b8 bd 01 24 d9 3c a1 e8 40 3c 40 5d e8 3c
       -0.09002644 0.026506426 0.011774213 0.028364778
0001a0 38 c3 59 bd b2 cc 9e 3c aa 84 d7 bd 92 a6 43 bc
       -0.05316469 0.019384716 -0.105233505 -0.011941569
0001b0 e0 63 9d 3d c1 ec 79 bd 8f e2 8a bd 30 c3 0f bd
       0.07685065 -0.0610168 -0.06781494 -0.035098255
0001c0 44 26 b1 bd 62 e1 b9 bc ea 54 db bd 8a d4 81 bc
       -0.08649877 -0.022690479 -0.107095554 -0.015848417
0001d0 f3 c0 7e bc 0b a9 19 3d 81 38 95 bd 5a 5f c9 bd
       -0.015548932 0.037514728 -0.07286168 -0.0983264
0001e0 f0 47 87 bd de d9 b4 3c 27 0c 24 bd e5 1a 10 3c
       -0.06605518 0.022076543 -0.040050652 0.008795475
0001f0 2f a6 b6 3c 7e fd 9b bc 60 e4 ad 3c 82 05 f6 bc
       0.02229604 -0.019041773 0.021227062 -0.030031923
000200 a7 c0 76 bb bd 97 72 3c 64 21 88 3c c0 8b cc bc
       -0.003765145 0.014806685 0.016617484 -0.024968982
000210 b5 cb 3e 3c ca 70 56 3d 87 8b 83 3d 33 41 cb bc
       0.011645247 0.052353658 0.06423097 -0.024811363
000220 f5 98 f7 bd ff 86 9d bd b0 44 07 bc ee 6c 45 bd
       -0.12089721 -0.07691764 -0.0082561225 -0.048199587
000230 25 db 80 bd c8 98 4f bc 7b 5f e4 bc 31 ce cd bc
       -0.062917985 -0.012670703 -0.02787756 -0.025122734
000240 cd 2f a6 3d 7c 51 36 bc 8d ba a7 bd 15 93 bc bd
       0.08114586 -0.011127826 -0.081898786 -0.09207741
000250 6f 1d db bb b0 43 1f bd 9f e1 73 3c 18 fa 88 3d
       -0.0066868584 -0.03888291 0.014885335 0.066883266
000260 78 04 8d 3d c9 f9 03 3d 27 4b a1 3c cf 6a cd bc
       0.06885618 0.032220636 0.019689156 -0.025075344
000270 a1 7c 66 bd 2e 96 cb bc 48 a0 6b bd 37 7c 81 bd
       -0.0562712 -0.024851885 -0.057525903 -0.0632252
000280 9f f4 a1 bd 33 e5 96 bc 81 04 9c bd 31 ae 24 bd
       -0.07907986 -0.018419838 -0.076180466 -0.040205184
000290 a9 42 1f 3d a8 6b d7 bd 0a a6 c1 3d 13 59 da bc
       0.03888193 -0.10518581 0.094554976 -0.026653802
0002a0 f9 1b c0 bc a7 9b 61 3d ae 2e 8d bd 18 55 e5 bc
       -0.023450838 0.055080082 -0.06893669 -0.027994677
0002b0 d0 51 36 3d b7 86 35 bd 68 f1 68 3d d0 63 fc bb
       0.044511616 -0.044317927 0.056870848 -0.0077023283
0002c0 7a cf 24 3c 25 ca 8c 3a 48 02 09 bd 15 3a 25 3b
       0.010059232 0.0010741396 -0.03344944 0.0025211622
0002d0 85 ed 06 bc 18 5d 2f 3d 83 7e 8f bd 39 95 0f bd
       -0.00823534 0.04281339 -0.07006552 -0.03505442
0002e0 83 e9 40 3c cc 60 a2 bd 3f e4 d0 3a be 61 26 bd
       0.0117744235 -0.07928619 0.0015937163 -0.040620558
0002f0 17 ad 2c bd 5c 55 e6 bd e7 c2 ba bb 14 a6 87 bd
       -0.04215726 -0.1124675 -0.0056995037 -0.06623474
000300 b0 86 06 bd 1d 3c 1f 3d 27 67 c3 bd e0 ea 8e bd
       -0.03284329 0.038875688 -0.09541159 -0.069783926
000310 c8 1b 8d 3d 76 4a 0f bc c6 8b 9f 3c 5a 9a 04 3c
       0.068900645 -0.00874578 0.019475829 0.008093441
000320 46 11 8f bd 63 27 db 3c ba 45 ce bb 5c 5d 5b 3d
       -0.069857165 0.02675218 -0.006294933 0.05355583
000330 67 45 21 ba 90 51 d4 bd fd b9 0b bc 6b a2 ff 3c
       -0.00061520044 -0.10367119 -0.00852823 0.031205377
000340 df b5 d8 bd 19 2a 3b bd 55 8d 2b 3c 22 77 7a bd
       -0.10581564 -0.045694444 0.010470708 -0.06114877
000350 4f 6f ed 3c a4 be 2d bd 3c 4d bc bc 07 31 a0 3d
       0.02898374 -0.042418137 -0.022986047 0.07821851
000360 f0 99 91 bc 92 6d 68 3d 13 0e 0d 3c d2 3c d0 bc
       -0.017773598 0.05674512 0.008609313 -0.025419626
000370 4f ee d5 3c 2f c9 54 bd d1 fb e9 bc cf e8 01 3d
       0.026114611 -0.051949676 -0.028562458 0.031716164
000380 c8 25 27 3d d5 29 c3 bd 79 dc b0 bd 8e 78 19 3c
       0.040807515 -0.09529463 -0.08635802 0.009367121
000390 ac 84 29 bc aa 5c 0e 3c cf 7c c7 bc 02 36 ab 3c
       -0.010346573 0.008689085 -0.024351506 0.020899776
0003a0 20 0e 8e bd 7f d5 55 3d c2 3c 74 bc 9f e5 22 3c
       -0.06936288 0.05220556 -0.014907064 0.009942441
0003b0 30 d1 08 3d cc a0 a0 bd c9 ba 08 bc 26 5e 1b bd
       0.03340262 -0.078431696 -0.008345314 -0.037931584
0003c0 fe c4 88 bd f1 20 b1 3b 70 99 8d bd e4 9f b1 bd
       -0.06678198 0.0054055382 -0.069140315 -0.08673075
0003d0 72 66 bb bc 21 f6 26 bd 04 a1 5a 3c 11 55 8c bd
       -0.022875998 -0.04076207 0.013344053 -0.06852163
0003e0 b1 02 17 3c 26 89 ad bd bc 3b 05 bd 93 9b 92 bd
       0.00921695 -0.084734246 -0.03252767 -0.0715858
0003f0 ab a7 4a 3d b4 42 4f 3d db ad d4 bd 46 b1 95 bd
       0.049476307 0.050600722 -0.10384723 -0.07309203

net.2.bias f4 [64]
000000 54 35 66 3d 4b 93 af bd 44 2d a3 bd ce b4 0b bc
       0.0562032 -0.08573016 -0.07967618 -0.008526994
000010 6e a3 55 bc 5c 65 ac bd 53 ab bd 3d 08 82 21 bd
       -0.013039453 -0.0841777 0.09261193 -0.039430648
000020 23 53 9e 3d 5b 3c c9 bc cc 29 9f 3d 47 84 2f bc
       0.07730701 -0.024564913 0.07771644 -0.01071269
000030 98 b4 a1 3b 01 92 1b 3d 3e 6b e4 bd 84 9c 31 3d
       0.0049348585 0.037981037 -0.11153267 0.043362156
000040 0e 83 bb bd c1 4b f1 bb 53 d3 b2 bd 4e 3f a9 bd
       -0.09155856 -0.007363767 -0.08731713 -0.082640275
000050 82 1e bd bd eb 51 b6 bb f1 dc ac ba 83 8f 09 be
       -0.092343345 -0.0055639646 -0.0013188404 -0.13433652
000060 ac ea 71 3d 24 c4 b4 bb a8 07 e9 bd 25 05 b0 3d
       0.05906169 -0.005516546 -0.113784134 0.08594731
000070 20 60 17 3d 75 a9 70 3d bf b9 01 3d 85 34 72 bd
       0.036956906 0.058755357 0.031671282 -0.059132118
000080 0a d2 81 bd 7f f9 65 3d f8 2d a6 3c c2 c3 62 bd
       -0.0633889 0.05614614 0.020285591 -0.05536247
000090 20 da a4 bd 75 69 96 bd dc 21 db bd 12 ae 21 bd
       -0.080494165 -0.07344333 -0.106998175 -0.039472647
0000a0 17 4c 05 3d b6 d5 d1 bc cb 59 80 bb 8f d7 b3 bc
       0.032543268 -0.0256146 -0.003916954 -0.021953372
0000b0 81 1e 3c bc 22 93 b9 bd 5e 9b db bd 8e df 79 3d
       -0.011481882 -0.090612665 -0.10722993 0.061004214
0000c0 f3 15 e4 bc fb 30 b6 3c 5e 59 ad bd 18 34 0d 3b
       -0.027842497 0.022240153 -0.08464311 0.0021545943
0000d0 5d 9e 00 3e d0 90 e7 bc 2c f9 a2 bc 9b 4d ba bc
       0.12560411 -0.028267294 -0.019894205 -0.022742083
0000e0 43 06 dd 3c a8 c1 7a bd ff fa 68 bd 97 96 39 3d
       0.026980525 -0.06121984 -0.056879994 0.04530963
0000f0 89 e8 3b bc ee 50 95 bc ce 5c df 3a 5d c5 32 3c
       -0.011469015 -0.018227067 0.0017041208 0.010911313

net.4.weight f4 [3, 64]
000000 05 8b b9 3c d1 ef 4c 3c 78 b6 a7 3c 02 8d 94 3d
       0.022649297 0.012508349 0.02047275 0.072534576
000010 d4 69 af bc 97 a0 41 3d 25 ca fc 3c 5c 13 39 3d
       -0.021412767 0.04727229 0.030858109 0.04518448
000020 77 eb d2 3c 12 32 f1 bc 54 10 62 3d 60 65 30 bd
       0.025747044 -0.02944282 0.055191353 -0.04306543
000030 c8 d4 b7 3d d4 fe b8 3c 58 61 7d bd 52 9e 8f 3b
       0.08976132 0.022582449 -0.061860412 0.004382887
000040 22 f6 8a 3b 9c be ff bc 49 62 c1 bd 14 0b 4e 3c
       0.004240767 -0.03121882 -0.094425745 0.012575883
000050 61 e0 b1 bc b6 64 c7 3d f3 9a 47 bd bc f8 e9 3c
       -0.021713438 0.09736006 -0.048731755 0.028560989
000060 18 3c 79 bc f3 96 72 bd 17 23 74 bd 9d 65 a7 3c
       -0.015212081 -0.059225988 -0.059603777 0.020434195
000070 a7 cd a3 3d e6 6e 23 bc 6f a0 8e bc 57 9d 82 3c
       0.079982094 -0.009975171 -0.017410485 0.015944166
000080 6c 1d 05 bd 9c 3a 84 bc a2 13 b5 ba 71 46 ac bc
       -0.032498762 -0.016141228 -0.0013815055 -0.021029683
000090 7d e0 57 bc 5f 7d 8b 3d 6a 19 e2 bc 23 e8 ba bb
       -0.013176081 0.06811022 -0.027600009 -0.0057039424
0000a0 00 20 6f 3a 46 c6 b5 3d ec 84 38 3c 0b 5c 75 3d
       0.0009121895 0.08875708 0.01126216 0.059902232
0000b0 c6 d0 a8 bd 1f da 39 bd 9d a5 35 bd e3 f6 ac 3d
       -0.082429454 -0.045374032 -0.044347394 0.084455274
0000c0 a7 3f 1d 3d ae ae d9 3a 1d 76 8a bd 76 74 40 bc
       0.03839078 0.0016607845 -0.067608096 -0.011746516
0000d0 b3 2b 6a 3d 52 53 9f bc b5 94 c0 3d 52 47 8f bc
       0.05717058 -0.01944891 0.094033636 -0.017490063
0000e0 10 b0 b9 bc a9 52 aa bb db 22 de bd dd 96 df bb
       -0.022666961 -0.005197842 -0.10846492 -0.006823404
0000f0 bc c5 a0 bc ca a5 4e 3d a6 8f aa bd 64 6e d3 bd
       -0.019625537 0.050451078 -0.0832818 -0.1032379
000100 c4 5f a7 3b bf 3b 40 bd fd 7c aa bd 3d 0f 82 3d
       0.0051078517 -0.04693198 -0.08324621 0.06350563
000110 c3 b2 ba bc 20 44 82 3d ca 6b 1a bc 60 1c 4b b9
       -0.022790318 0.0636065 -0.009425113 -0.00019370159
000120 d3 03 1b 3b 8a 3a 88 bd 36 9a 03 3d 39 07 b9 bc
       0.0023653402 -0.066517904 0.03212949 -0.022586452
000130 8d b3 02 bd e2 60 2f 3c 9d 55 a6 bd 2e 74 5a bd
       -0.031909514 0.010704251 -0.08121798 -0.053333454
000140 b0 8f d0 bd 62 87 a2 ba be 9f 7d 3d ee 70 1e bd
       -0.10183656 -0.0012399966 0.06191992 -0.038681917
000150 79 1b 99 bc 18 7a 0d bd 55 c1 d9 bd 3a 7b 99 bd
       -0.018689858 -0.034540266 -0.10632578 -0.07494207
000160 5c c1 40 3d 75 a6 dc bc 58 4f 7a bc 08 1a 5e 3c
       0.047059402 -0.026934842 -0.015277706 0.013556011
000170 80 60 1c bd ae 3d 0a 3d 3f 1b 8a 3d 38 a1 54 3d
       -0.038177967 0.03375023 0.06743478 0.051911563
000180 45 42 82 3d d8 7f 2d 3c a3 a4 69 bd a6 98 a0 bc
       0.06360296 0.010589562 -0.057041775 -0.019604038
000190 05 02 87 bd 06 54 7b bb 1d bb 35 bc e7 c9 66 3d
       -0.06592182 -0.0038349642 -0.011091975 0.056344893
0001a0 49 5b 0d 3d c4 3d 55 3d 5a 29 16 bd c0 5b cc bc
       0.034510884 0.052060857 -0.03666053 -0.024946094
0001b0 b3 20 cf bd 14 c5 39 3d 50 09 5a bd fd 0d db bb
       -0.10113659 0.045353964 -0.053231537 -0.006685017
0001c0 ec 0a c4 3d 1c a7 ad bc 08 a0 0a bd 90 8b 68 bd
       0.09572396 -0.021197848 -0.033844024 -0.056773722
0001d0 5b 45 68 3d 7e fc 0e 3d 8a a6 48 3d ad 9c 90 bc
       0.056706768 0.034908764 0.04898695 -0.017652834
0001e0 0d 9e 82 3c 63 d5 8f 3d 6a ed 58 bd d4 3a 86 bd
       0.015944505 0.07023122 -0.05296079 -0.06554189
0001f0 4c 84 2a bc a7 b2 53 bd b8 79 6e bd e2 6f dc 3c
       -0.010407519 -0.051684048 -0.05822155 0.026908819
000200 39 57 40 3c 6e b9 8f 3d a4 d2 83 bd dc 3a 48 3c
       0.0117395455 0.0701779 -0.06436661 0.012221064
000210 2f 37 36 3d c6 08 e2 3a 4b 4b e7 3d 7a 3a e5 bd
       0.04448622 0.0017245046 0.11293658 -0.11192794
000220 a8 f5 08 3d 12 ce c8 bd 8a 41 86 3d 2d 43 bb 3c
       0.0334374 -0.0980493 0.06555469 0.02285918
000230 c5 3c d1 bc 2c f3 2a 3d 4a 1f 8e bd 4a 24 12 3d
       -0.025541672 0.041735813 -0.06939562 0.03567914
000240 8d 04 bc bc ed 8b 24 3d f8 07 2b 38 db 44 72 bd
       -0.022951389 0.040172506 4.0777e-05 -0.059147697
000250 12 8a a9 3d 07 d5 85 bd c5 57 b3 bd fd fa e4 bd
       0.08278288 -0.06534772 -0.08756975 -0.11180685
000260 f7 a0 00 3e a1 9e 86 bd cb ed b8 bd 0b 50 52 3d
       0.12561403 -0.06573225 -0.090297304 0.051345866
000270 1d 4e ab bc 8d 5b db 3d b7 e5 1d 3d fe d8 bf bb
       -0.02091127 0.10710821 0.03854915 -0.005854725
000280 1d a9 f2 bc 14 83 03 3e 5c f9 83 bd 68 47 a3 3d
       -0.029621655 0.12842971 -0.06444046 0.07972604
000290 11 2c 0d 3c 0e 28 4d 3c f0 67 27 bc c6 20 26 3d
       0.008616463 0.012521757 -0.010217652 0.0405586
0002a0 16 8c d2 bd fb ca c2 3c 8a 3f b4 3c 28 eb 0e 3c
       -0.102806255 0.02377843 0.022002954 0.008723058
0002b0 bc a6 b1 3a ef 41 7f 3d 58 8f a9 bb a7 20 f3 b9
       0.0013553719 0.06231874 -0.0051745586 -0.000463729
0002c0 b6 e1 8d bd 69 07 0d 3d cd 43 03 bd fe cf 7c 3d
       -0.069278166 0.034430895 -0.03204708 0.061721794
0002d0 9a f3 56 3d 8d 95 77 bc e6 22 c6 bd ec 11 fd 3d
       0.05247841 -0.015111339 -0.09674625 0.12356934
0002e0 c0 75 f4 3d 4a 9b 84 3b 41 36 2b bd 93 74 aa bc
       0.119365215 0.004046832 -0.041799787 -0.02080754
0002f0 91 a2 01 3d fc 3a 9f bd 03 8f c1 bc a1 c0 c2 bc
       0.031649176 -0.07774922 -0.023627764 -0.023773493

net.4.bias f4 [3]
000000 6a 11 d4 3d 73 32 85 3d 5e dc 96 3d
       0.10354884 0.06503763 0.073662505
